…
2019-03-04 10:56:45.387949: I tensorflow/stream_executor/cuda/cuda_diagnostics.cc:369] driver version file contents: """NVRM version: NVIDIA UNIX x86_64 Kernel Module  375.26  Thu Dec  8 18:36:43 PST 2016
GCC version:  gcc version 4.8.5 20150623 (Red Hat 4.8.5-11) (GCC) 
"""
2019-03-04 10:56:45.387980: I tensorflow/stream_executor/cuda/cuda_diagnostics.cc:193] kernel reported version is: 375.26.0
_________________________________________________________________
Layer (type)                 Output Shape              Param #   
=================================================================
input_1 (InputLayer)         (None, 256, 256, 1)       0         
_________________________________________________________________
conv2d_1 (Conv2D)            (None, 256, 256, 64)      640       
_________________________________________________________________
conv2d_2 (Conv2D)            (None, 128, 128, 64)      36928     
_________________________________________________________________
conv2d_3 (Conv2D)            (None, 128, 128, 128)     73856     
_________________________________________________________________
conv2d_4 (Conv2D)            (None, 64, 64, 128)       147584    
_________________________________________________________________
conv2d_5 (Conv2D)            (None, 64, 64, 256)       295168    
_________________________________________________________________
conv2d_6 (Conv2D)            (None, 32, 32, 256)       590080    
_________________________________________________________________
conv2d_7 (Conv2D)            (None, 32, 32, 512)       1180160   
_________________________________________________________________
conv2d_8 (Conv2D)            (None, 32, 32, 256)       1179904   
_________________________________________________________________
conv2d_9 (Conv2D)            (None, 32, 32, 128)       295040    
_________________________________________________________________
up_sampling2d_1 (UpSampling2 (None, 64, 64, 128)       0         
_________________________________________________________________
conv2d_10 (Conv2D)           (None, 64, 64, 64)        73792     
_________________________________________________________________
up_sampling2d_2 (UpSampling2 (None, 128, 128, 64)      0         
_________________________________________________________________
conv2d_11 (Conv2D)           (None, 128, 128, 32)      18464     
_________________________________________________________________
conv2d_12 (Conv2D)           (None, 128, 128, 2)       578       
_________________________________________________________________
up_sampling2d_3 (UpSampling2 (None, 256, 256, 2)       0         
=================================================================
Total params: 3,892,194
Trainable params: 3,892,194
Non-trainable params: 0
_________________________________________________________________
Epoch 1/1

 1/71 [..............................] - ETA: 35:35 - loss: 0.1041
 2/71 [..............................] - ETA: 29:45 - loss: 0.5482
 3/71 [>.............................] - ETA: 27:36 - loss: 0.6905
…
